scripts/iclr_experiments/lorenz/vae_gaussian_lorenz_sd.pt (torch, 442143 bytes, 20 tensors)

prior.logvar f4 [1, 3]
000000 b6 a4 cf c0 5b a4 c6 c0 84 54 b7 c0
       -6.4888563 -6.207563 -5.729067

prior.prior.0.weight f4 [256, 3]
000000 b1 09 aa 3e 05 b0 dd be 14 29 84 3c a6 1d d7 3e
       0.3321052 -0.43298355 0.016132869 0.42014807
000010 e1 40 07 be 4d 76 cb 3e af d4 f1 be 98 ec d8 be
       -0.13208343 0.39738694 -0.47232577 -0.42368007
000020 a9 44 46 bd 94 19 02 3f a4 a7 50 bd 56 28 e0 bc
       -0.048405323 0.5082028 -0.050941125 -0.027362984
000030 2e 36 b6 be b3 20 90 3e 8e 6c e2 3e 9a db 37 bd
       -0.3558821 0.28149948 0.44223446 -0.044887163
000040 48 d9 4d be 62 6a b0 bd ce 83 9f be 7a ab 18 be
       -0.20102417 -0.08614041 -0.31155246 -0.14909163
000050 78 2b de be ff e4 97 bd b9 52 d8 bd fb 3b c2 3d
       -0.4339254 -0.074167244 -0.10562653 0.094840966
000060 7b f1 44 bf 7b ce 03 3f 5e 0d c5 3e e9 c7 fe be
       -0.7693097 0.5148694 0.3848676 -0.49761894
000070 1e f2 9f bd 54 b6 da be 53 0f 0b bf 01 84 02 3f
       -0.07809852 -0.4271723 -0.5432026 0.5098267
000080 ca d9 d4 3e bf a0 cb 3d 77 48 17 bf e6 5b e5 be
       0.4157241 0.09942769 -0.5909495 -0.44796675
000090 be c9 12 be a7 4a c8 be 95 89 01 3f 09 67 7b bd
       -0.14334771 -0.39119455 0.5060056 -0.06137756
0000a0 47 1f 45 3d 61 d8 95 bd d9 6d 22 be 6c fd 74 bc
       0.04812553 -0.073166616 -0.15862216 -0.014952999
0000b0 8f 8b cf 3e 16 aa b0 3e 2a 04 7e 3e 8f 76 f0 3e
       0.40536162 0.34504765 0.24806276 0.46965453
0000c0 a7 0d f3 3e 62 f0 36 3e 13 a7 69 3e 85 b4 ec 3e
       0.47471353 0.17865136 0.2281764 0.46231475
0000d0 61 27 d0 be aa 35 ed 3e 74 c6 6d 3e df 84 e6 3e
       -0.40655044 0.46330005 0.23220235 0.45023248
0000e0 cf 3a b1 bd 84 2c b4 3d 59 20 bb be be 6a ea 3e
       -0.08653795 0.08797553 -0.36548117 0.45784563
0000f0 96 3a 15 3e 92 98 0b bf 47 64 85 be cc ed 17 bf
       0.1457313 -0.5452968 -0.26053068 -0.59347224
000100 c0 04 e9 3e 36 c0 13 3f 18 4b aa bd 4e 4f ae 3c
       0.45511436 0.57715166 -0.08315104 0.02127805
000110 86 62 82 3c 0f 88 1c bf 6a 59 de 3e a9 59 ab 3e
       0.01591612 -0.6114511 0.43427593 0.33466843
000120 c0 92 87 3e 91 b8 04 3e 93 62 8d 3e 2b fa 23 be
       0.2647915 0.12961031 0.2761427 -0.160134
000130 5f 2d 96 3e ec 25 b7 3e b3 75 81 3e fa 6e e3 bb
       0.2933149 0.3577112 0.2528511 -0.0069407197
000140 3e bb 9e be f9 12 81 bb 0e 69 02 3f 95 26 d1 3e
       -0.3100223 -0.0039390293 0.5094155 0.40849748
000150 a9 f3 34 be 31 fa 4b 3e 54 88 f9 be ff b5 06 3f
       -0.17671074 0.19919659 -0.48736823 0.52621454
000160 42 e2 ca bd 34 f3 02 3e 32 d6 0d be a5 49 d4 bd
       -0.099064365 0.12788087 -0.1385124 -0.10365609
000170 7e 39 8a bd ca dc 13 3e ba 71 95 3e 07 7a 91 3e
       -0.06749247 0.14439693 0.2918833 0.28413412
000180 7b b5 e5 be aa 0e f9 be 41 f0 c4 be 18 37 e7 be
       -0.4486502 -0.48644 -0.3846455 -0.4515922
000190 da ea 0a 3f f3 29 0a 3c 6b 10 75 3d 7b 5d 0a bf
       0.54264605 0.008432853 0.05983011 -0.5404889
0001a0 fb 0f c5 be 54 de 82 3d 06 1e 94 be 38 99 af bd
       -0.38488755 0.06390062 -0.28929156 -0.08574146
0001b0 99 81 05 3f f9 f1 cc be 2c d3 e9 3e 91 8d 42 3e
       0.52150875 -0.4002836 0.45668924 0.18999316
0001c0 de 17 66 be fc b8 ee bd 8b c2 0a 3f c0 b3 ec 3e
       -0.22470042 -0.11656377 0.542031 0.46230888
0001d0 a1 fa ab be 84 76 4e 3e 95 e8 d2 3e d9 97 5b be
       -0.33589652 0.20162398 0.4119307 -0.21444644
0001e0 6b d9 be be a7 b3 bd 3e 1f db 98 be 99 04 f1 3e
       -0.37275252 0.37051126 -0.29854676 0.4707382
0001f0 4b 5b 78 3e 8f 01 d4 be cd 1d 59 3e af 6c 3d be
       0.24253576 -0.4140744 0.21202774 -0.18498491
000200 3b cb f2 bd ff 29 bf 3d 55 dc a0 be 7a 05 82 3d
       -0.118551694 0.09334182 -0.314181 0.06348701
000210 81 3d fd bd d2 57 61 3d cc a1 ab bd 8f 07 ff be
       -0.123652466 0.055015393 -0.0838047 -0.49810454
000220 d2 54 e6 bd 70 22 a9 be 11 12 19 3f 2e 5c de 3d
       -0.11246647 -0.33034086 0.5979319 0.10857426
000230 e0 17 fb 3d 26 42 67 be b6 1a df 3c 8c f6 11 3d
       0.12260413 -0.22583827 0.027234416 0.035635516
000240 fc 4e 90 3e 5d ef 4b 3d e3 b8 c0 be 45 fd 31 3e
       0.2818526 0.04978882 -0.37641057 0.17381771
000250 bc af e5 be 4e 3d 2b be 54 29 a0 bd ef 1c 33 bd
       -0.44860637 -0.16722605 -0.07820383 -0.043728765
000260 e7 f2 dd ba d8 99 c2 3e 2c c3 aa 3e 7c 00 48 3e
       -0.0016933352 0.38007998 0.3335203 0.19531435
000270 34 d9 c5 be 34 db 67 3e a2 72 f5 bd 7f 6e 96 be
       -0.38642275 0.22642213 -0.11984755 -0.29381177
000280 c5 d6 45 3d 7e e9 c1 3e 92 b3 4b 3e 24 33 ad 3e
       0.048300523 0.37873453 0.1989272 0.3382808
000290 58 76 94 3d d8 22 bd bd 36 84 9f be 6d 36 72 be
       0.07249135 -0.092351615 -0.31155556 -0.23653574
0002a0 fd da 74 3d 14 67 cb be 92 8f 95 be 7f 13 bc 3d
       0.059779156 -0.3972708 -0.29211098 0.09183406
0002b0 34 0b 95 bd 22 5e 66 be 1f 78 00 3f 6a b3 d6 3d
       -0.072775275 -0.22496846 0.5018329 0.10483439
0002c0 94 cd d2 3e d1 26 f1 be ab 9a 28 be f2 e2 e0 3e
       0.4117247 -0.47099927 -0.16465251 0.43923146
0002d0 a3 68 af 3e 66 ce 8d be 4c a9 f0 be 5a 19 bf 3d
       0.3425952 -0.27696532 -0.47004163 0.09331007
0002e0 b6 a4 c3 3e 34 32 bd 3c 08 96 fb be 09 36 eb 3e
       0.38211602 0.023095228 -0.49137902 0.45939663
0002f0 2d 35 fd be 0a be 68 3d d0 41 dc be 64 12 86 3e
       -0.49454632 0.05682186 -0.4301896 0.26185906
000300 46 22 05 be 70 4c 63 3e a6 98 03 3b 1d b7 41 be
       -0.13001356 0.22197127 0.002008 -0.18917508
000310 2f e4 d3 be ea 86 99 3e 4b 11 1b 3e dc 3c 21 be
       -0.41385028 0.29985744 0.15143315 -0.15745872
000320 12 d9 89 be c7 47 3f be bc d5 91 3d 31 59 09 3e
       -0.26923424 -0.18679725 0.07120845 0.1341293
000330 e5 2f 23 be 39 23 bc 3d 8b e3 39 3e 2d f9 70 be
       -0.15936239 0.09186406 0.18153207 -0.23532553
000340 e6 74 eb 3e 6f 92 63 3e b9 6b ff be 0c e4 71 3e
       0.45987624 0.22223829 -0.49886873 0.23622149
000350 ec 09 f1 be eb c4 9f 3e 0d 6b a0 be 59 0a 83 3e
       -0.47077882 0.31204924 -0.31331673 0.25593832
000360 db 8a 5d 3e 6d c0 46 bd 92 3a 03 bf 9c e6 05 3f
       0.21635 -0.048523355 -0.51261246 0.52305007
000370 4c f2 ed be df 7c bb 3d 5b 19 83 3e a8 38 24 be
       -0.4647392 0.09154677 0.25605282 -0.16037238
000380 02 b3 9f 3e 04 4d 58 be 29 e3 96 3e c9 86 d8 3c
       0.3119126 -0.21123129 0.29470184 0.026431458
000390 4b f5 08 3f 2e ff 74 3e a9 6a c6 3e 86 94 95 bd
       0.5349929 0.23925468 0.3875325 -0.07303719
0003a0 a2 f3 a0 3e a2 2e cb bd 91 60 8b 3d 01 9e 88 3e
       0.31435877 -0.09921004 0.06805528 0.26683047
0003b0 0d 1d 59 3e 29 f1 22 be dd 07 8b 3c cf a8 b7 be
       0.21202488 -0.15912308 0.016971523 -0.35870978
0003c0 45 18 96 bd b8 69 a8 bb bb d7 0c be 69 07 67 bd
       -0.07328848 -0.005139556 -0.1375417 -0.05640355
0003d0 a2 93 64 3d fb d1 45 3e 0c 16 59 be 24 70 02 3e
       0.055804856 0.19318382 -0.21199816 0.12738091
0003e0 51 57 db 3d b7 5d af be 57 70 16 be 4a 1b 77 be
       0.10710014 -0.34251186 -0.14691292 -0.24131504
0003f0 8c 9c a3 bc 0a 32 4b 3e 99 a3 48 3e 19 2b 3b 3e
       -0.019972108 0.19843307 0.19593658 0.18278159

prior.prior.0.bias f4 [256]
000000 61 f0 21 3f e4 dc 0e 3f 83 67 28 bf 58 15 5d 3d
       0.63257414 0.558058 -0.65782946 0.053975433
000010 55 63 f0 bd c9 40 e4 be 05 b8 dc be 54 48 b9 bd
       -0.11737696 -0.44580677 -0.43109146 -0.090469986
000020 31 a4 a4 3d e2 3a 49 3c 66 c2 01 3d 7b 1d c1 3e
       0.080391295 0.012282105 0.031679533 0.37717804
000030 1c 8e b4 be df fd 39 3e ef 31 0c 3d 3e 87 d3 be
       -0.3526467 0.1816325 0.034227308 -0.4131412
000040 7a cc 46 bc 3b 86 50 3d 23 89 0e bf 07 2d 5f 3e
       -0.012133712 0.050909262 -0.55678004 0.2179452
000050 40 09 e2 be 5f 36 fa bd 6e 9e 3e 3e 57 12 63 3f
       -0.44147682 -0.12217402 0.18615124 0.8869986
000060 b4 17 26 3f c8 79 8a bd 72 46 08 bf e3 e5 e8 3c
       0.6487992 -0.06761509 -0.5323249 0.028429931
000070 6f 95 fa 3d 39 4a 24 bf e5 0a 2a 3e 62 32 89 bd
       0.122355334 -0.64175755 0.16605718 -0.06699063
000080 b5 98 f6 be 99 b9 13 3e 2c c9 83 3e d8 1a 18 bf
       -0.4816338 0.14426269 0.2573942 -0.5941596
000090 06 82 4f be 62 c7 b7 bd 12 93 0d bf 7b 3d 7b be
       -0.20264444 -0.08973576 -0.55302536 -0.24535172
0000a0 2d b3 4f be 8d 38 f4 be 81 f9 08 3e e7 36 31 bf
       -0.20283194 -0.47699395 0.13376428 -0.692244
0000b0 df 6c 25 bf 58 22 08 bf 3d e5 03 be fb 48 8f be
       -0.6461925 -0.53177404 -0.12880416 -0.27985367
0000c0 88 80 21 3f 46 0d 2f bf de 07 85 3e 92 e0 4c 3e
       0.6308675 -0.6837963 0.25982565 0.20007542
0000d0 2c 40 1e bf 0d 10 0e 3d 04 06 d2 3e c5 d9 63 be
       -0.6181667 0.034683276 0.41020215 -0.22251041
0000e0 e8 95 1c be 9b 8b 3d be ac 4e 21 bf 37 f1 a7 be
       -0.1529156 -0.18510287 -0.6301067 -0.3280122
0000f0 56 8d f1 3e fe 0f f2 bd 4d b6 6e be 3e a4 92 3d
       0.47178143 -0.118194565 -0.2331173 0.07160233
000100 4e e1 29 3f 56 46 b6 3e e7 4d 13 be 66 e0 e8 be
       0.6635941 0.35600537 -0.14385186 -0.45483702
000110 59 81 df be f8 08 be 3d 4b 2c 0d 3f 6b 9e c0 3e
       -0.43653372 0.092790544 0.5514571 0.37620863
000120 d7 c4 17 3e 3c a3 27 3d aa f8 84 3d dd 37 b0 3e
       0.14821182 0.040927157 0.064927414 0.3441762
000130 a5 2d 45 be 89 f0 40 bf c1 f0 bf be ec 57 a8 3e
       -0.19255693 -0.7536703 -0.37488368 0.3287958
000140 e7 b7 d6 be c2 d4 06 3f 65 65 33 bf 01 56 b7 3e
       -0.4193718 0.5266839 -0.7007659 0.35807803
000150 dc 70 e1 be df a7 9f 3e 78 23 1b be d2 f6 03 be
       -0.44031417 0.31182763 -0.15150249 -0.12887123
000160 fe 33 a4 3e 92 4c fc 3e 27 cf 6f 3e 54 d7 13 be
       0.32070917 0.4927717 0.23418866 -0.1443761
000170 de 17 16 bf 6d 7d 66 3d f4 de a8 be 1a 4b cd be
       -0.5863017 0.05627196 -0.329826 -0.4009636
000180 c3 1c 11 bf dd 0d 32 3f a7 dd 44 3e e2 7c b6 3d
       -0.5668451 0.69552404 0.19225179 0.08910538
000190 f4 64 fd 3e 7d f5 2f 3f 84 21 38 3f b8 0a b9 be
       0.49491084 0.6873396 0.7192614 -0.3614099
0001a0 30 9a b9 be 71 91 d4 be 88 8a 14 3f 71 06 fa 3e
       -0.36250448 -0.41517213 0.5802388 0.4883304
0001b0 4f 5f 91 3e 5e ef 82 3d 1c 8f 2f bf bd 44 0d bf
       0.28393027 0.06393312 -0.6857774 -0.5518301
0001c0 19 c2 be 3e 6c 82 20 3f f0 f3 91 bc 75 d6 aa be
       0.3725746 0.6269901 -0.017816514 -0.33366743
0001d0 b6 fa 4e 3e 89 b9 91 3e a3 d3 1f bf f3 b7 f3 be
       0.20212826 0.28461865 -0.62432307 -0.4760128
0001e0 bc 80 e8 be 6b 91 d3 3e 1d 1d e2 3e 33 ae 99 3e
       -0.45410717 0.41321883 0.44162837 0.30015716
0001f0 32 4e 20 3f 13 fd 1c 3e 12 99 14 bf 3d 79 d8 be
       0.62619317 0.15330915 -0.58046067 -0.42279997
000200 14 4c ff be 60 96 94 3e b0 df 0c bf 92 7f 77 be
       -0.4986273 0.29020977 -0.5502882 -0.24169758
000210 58 5a 2a bf b5 cd 25 be 53 e0 34 3f cf 01 39 be
       -0.66544104 -0.16191752 0.7065479 -0.18067096
000220 c6 99 64 3e 2e 9d ff be 98 5e f2 bd d3 fc 67 be
       0.22324285 -0.49924606 -0.118344486 -0.22655039
000230 97 ad 89 3e 26 48 3d 3f b8 3d 30 3f 8f 1b 0e bf
       0.2689025 0.73938215 0.68844175 -0.555108
000240 13 1a bf 3e 3c 0b 05 3f 83 5e 12 bf 77 6f 27 be
       0.3732458 0.5197027 -0.57175463 -0.16351114
000250 b9 37 3a 3f 52 1b d8 be 26 92 20 bf a5 72 8e 3d
       0.72741276 -0.42208344 -0.62723005 0.069554605
000260 ef b5 b5 be cd a9 e6 3e 02 f1 02 3f 11 b9 61 be
       -0.35490367 0.45051423 0.51149 -0.22043253
000270 3c ea 7d 3d e1 ce 0a bf 42 a4 99 3e 3c 19 b9 3e
       0.06199096 -0.5422192 0.3000813 0.36152065
000280 1e e1 18 3f 29 3f 14 bf 54 d5 13 bf 13 0b a6 3e
       0.597185 -0.57908875 -0.5774739 0.32430324
000290 35 81 df bd 1f 23 ef 3e 46 d0 0b bf 20 94 cc be
       -0.10913316 0.46706483 -0.54614675 -0.3995676
0002a0 24 b4 84 be a9 d7 c0 be b1 3f f7 3e 64 80 a4 3e
       -0.25918686 -0.37664536 0.4829078 0.32129204
0002b0 94 a0 01 3f b1 ae de 3e b4 48 ea be 2f 4c 7d 3e
       0.5063565 0.43492654 -0.45758593 0.24736093
0002c0 d4 d3 2d 3d 6e 87 eb 3e 95 41 2e bf 1d a0 d4 3e
       0.042438343 0.46001762 -0.6806882 0.41528407
0002d0 c9 ad 12 bf d3 09 43 3e 3f 37 0c 3f d8 a2 7f 3e
       -0.57296425 0.19046716 0.547718 0.24964464
0002e0 d6 b8 cc bd cd b8 0e 3f 00 0f 08 be b6 ee 19 3f
       -0.09996192 0.55750734 -0.13286972 0.6012987
0002f0 83 36 ec 3e 72 ef e2 be c1 59 ba be df da 4e be
       0.4613534 -0.44323307 -0.36396602 -0.2020068
000300 29 d9 ce be d4 28 16 bf 4a 6a d8 bd c5 20 45 3f
       -0.40400055 -0.5865605 -0.10567148 0.7700313
000310 9e 76 4f be fe 38 19 be fb 1f fd bb 17 1a 0a be
       -0.20260093 -0.14963147 -0.0077247596 -0.13486515
000320 70 da 0b 3f 16 e8 3f bf c5 77 0a be 5c b2 89 3e
       0.54630184 -0.7496351 -0.13522251 0.2689389
000330 4e 11 9b 3e 54 aa 8d 3e 5d f1 a6 3d 0a 70 56 3e
       0.3028664 0.27669013 0.08151505 0.20941177
000340 4d 78 72 3e d1 31 11 bf 7f 9b b4 be 23 f3 08 3d
       0.23678704 -0.5671664 -0.35274884 0.033435
000350 4a df 28 bf 90 d0 e9 3d 0d 94 50 3f 63 8f 56 3e
       -0.6596571 0.11416733 0.8147591 0.20953135
000360 8b 90 b4 3c 33 1e a5 3e 80 44 ba 3e 81 ba d3 ba
       0.02204158 0.32249603 0.36380386 -0.0016153605
000370 62 54 6b be b6 32 1d bf 11 94 07 3f 69 f9 39 bf
       -0.22981408 -0.61405504 0.52960306 -0.72646195
000380 8d e7 ac be c4 c6 07 bf 1a 1d 95 be 14 e3 bf be
       -0.3377041 -0.5303767 -0.29123765 -0.37477934
000390 8a 67 ef be 89 20 ce be 51 8c e2 3e a6 1d 23 bf
       -0.46758682 -0.40259197 0.44247678 -0.63717115
0003a0 67 04 09 bf 99 ab 81 3e 3b d4 8e bb f3 1a dc 3d
       -0.5352234 0.2532623 -0.004358796 0.10747328
0003b0 bb 8e 54 be b2 82 15 be ac e1 db be f4 cb f4 be
       -0.20757572 -0.14600638 -0.4294561 -0.47811854
0003c0 25 10 73 be 7c be 98 3e 6e 5f 09 bf 0a 56 89 3e
       -0.23736627 0.29832828 -0.5366124 0.26823455
0003d0 81 3f ef be 6e 18 de 3d 16 14 0b bf 17 9a a4 be
       -0.46728137 0.10844503 -0.54327524 -0.3214881
0003e0 3d 41 cd 3d 58 7c 0d 3f 7a 12 82 be 36 13 19 bf
       0.10022209 0.5526786 -0.25404721 -0.5979494
0003f0 51 c6 53 be 24 04 ac 3e 76 9b 98 be 64 2a 62 be
       -0.2068112 0.3359691 -0.29806107 -0.22086483

prior.prior.2.weight f4 [256, 256]
000000 a0 02 7e bd 50 aa fe bc e4 34 48 bc 00 af 1b bd
       -0.062014222 -0.03108707 -0.012219641 -0.03800869
000010 91 e6 b4 bb 5b 6f 77 3e 98 0b e0 bc f9 18 1a bc
       -0.0055206497 0.24163572 -0.027349278 -0.009405368
000020 96 3b 2d 3d 2a 0f 87 3c 4f a9 ce bd d2 e8 2f be
       0.042293154 0.016486723 -0.10090887 -0.17178658
000030 ff 9f b6 bc 15 1b 2a be 39 cb 8a bd ab 52 21 3e
       -0.022293089 -0.16611893 -0.06777043 0.15754192
000040 e5 f6 ea 3d 7f 2b 8f bd 30 48 f0 3d bd e5 e6 bc
       0.11472873 -0.06990718 0.11732519 -0.02818572
000050 b4 51 69 3f e7 2a e5 bd 7f e5 9e 3d f4 99 25 3d
       0.91140294 -0.111898236 0.07758617 0.040430024
000060 b8 2d 91 bd bc 47 ac bd 87 20 c1 3d 9f 04 8b 3d
       -0.07088798 -0.0841212 0.09430032 0.06787991
000070 4a 28 b5 bc 57 d7 3b 3e eb 3f a0 3c 33 d0 e2 bd
       -0.022113938 0.18343864 0.019561728 -0.11074867
000080 68 0b b8 bc f1 f0 60 be ec ab 49 bd 6c 26 cf 3e
       -0.022466376 -0.21966912 -0.049236223 0.40459
000090 ae 47 3b 3d bb 80 eb bd cb 2b 23 3e 8f 1f ec 3d
       0.045722656 -0.11499163 0.15934674 0.11529457
0000a0 52 17 66 3d 70 26 2c 3e 6a b4 11 be 63 6a 7d 3d
       0.056174584 0.16811538 -0.14228979 0.061869036
0000b0 64 fe 02 3e 62 8b ac 3c 4b 4c 7c bc 06 24 32 b9
       0.12792355 0.021062557 -0.015399049 -0.00016988823
0000c0 23 28 f7 bc aa 08 5c 3f fe 7d f8 3d af 61 2d bd
       -0.030170506 0.8595072 0.12133406 -0.042329486
0000d0 24 a4 29 3d 50 a0 b5 bc 96 a5 d7 3c b6 6a 4f 3e
       0.041416302 -0.02217117 0.026324075 0.2025555
0000e0 91 67 87 bc 6b de 1f 3d 13 ce 0e 3e b0 d8 f5 3a
       -0.016528876 0.039030474 0.13945799 0.0018756595
0000f0 31 8d 07 bd c3 2a 79 3d 7d 8f 19 3d 49 5f 51 bd
       -0.033093635 0.060831796 0.037490357 -0.05111626
000100 2d b9 e9 be 9f 54 83 bd d6 78 fa 3d fd b1 07 3d
       -0.4564909 -0.064126246 0.12230079 0.033128727
000110 a3 88 b3 bc 37 b2 8d bd 7a 3b 03 3d 7d 28 d8 bd
       -0.02191574 -0.069187574 0.032039143 -0.105545975
000120 36 1f a5 3d 04 87 18 3e f2 26 04 3b 82 ea ae be
       0.08062594 0.14895254 0.0020164815 -0.3416329
000130 68 a5 3c 3e 1a 2c 0a 3e 2f 92 f7 bc 29 69 af bc
       0.18422472 0.13493386 -0.030221073 -0.021412449
000140 87 e1 02 3e 91 c2 43 be 22 16 14 3e bd 6b 38 bc
       0.12781344 -0.1911719 0.14461568 -0.011256156
000150 57 1d 90 3e 08 f4 a1 bc 92 6e 12 3e 77 ec 62 bd
       0.28147385 -0.019769683 0.14299992 -0.05540129
000160 87 b2 9b bc 80 6b 9e bd 9d e8 80 bd 1d 92 6d 3d
       -0.019006027 -0.07735348 -0.062943675 0.058000673
000170 8f db 82 3d d3 a4 6a 3b 3a a5 55 bd 09 ee 09 3c
       0.06389534 0.003580381 -0.052159525 0.008418568
000180 06 97 9e bd 52 ea a7 bc 4b 3b 89 bd 2f 3a 9d 3b
       -0.07743649 -0.020497475 -0.06700762 0.004798196
000190 de 04 a3 bd 57 c7 37 bd 00 1d 00 bf de 6a 4e 3d
       -0.07959913 -0.04486784 -0.5004425 0.050394885
0001a0 e5 f4 03 3e cb 23 f1 3c 4d e6 14 be 7b 2d 27 3d
       0.12886389 0.029436013 -0.14540978 0.040814858
0001b0 8b fb cf bc 1b 09 ec bc d6 1a 88 bb 08 bd 2a 3e
       -0.0253885 -0.028812936 -0.0041535897 0.16673672
0001c0 a4 c0 85 bd dd a5 23 be 67 d4 eb bd 5a e1 f9 3d
       -0.06530884 -0.1598124 -0.11515122 0.122011855
0001d0 1f 8b 31 bb ed b5 4e bd 94 f0 7c bd dd 7e 57 b8
       -0.002709098 -0.050466467 -0.06175287 -5.1378145e-05
0001e0 e0 4d 8a 3b b8 f3 bb bc 4b 1b 85 bd a1 a0 a6 bc
       0.004220709 -0.022943363 -0.06499346 -0.020340266
0001f0 e9 4f 76 be bb 2e 1c 3e 10 b4 3a 3d 40 09 99 3d
       -0.24053921 0.15252201 0.045581877 0.074724674
000200 ea 96 a3 bd 28 e0 8f bc 81 82 40 3e 4c bd 1a 3d
       -0.07987769 -0.01756294 0.18799783 0.037778184
000210 fa 25 a0 3e ec ee ee 3d 73 f6 91 bd 8f 34 09 3b
       0.31278974 0.116666645 -0.071270846 0.0020935868
000220 46 31 56 3d 8a 0f 11 3e e4 d6 53 bc 57 ce 04 3d
       0.052293085 0.14166084 -0.012929652 0.032423344
000230 d3 4d 30 be 43 32 9c bd 87 fc 4f be 50 e9 1f 3c
       -0.17217188 -0.07626774 -0.20311175 0.009760216
000240 5c b2 83 bd 3e e3 06 bf 75 22 8e 3d c0 0b a1 bc
       -0.06430504 -0.52690494 0.06940166 -0.019658923
000250 f9 b6 f1 bd 1f 6b 35 3d b5 f5 1e 3e ff f9 c3 3d
       -0.118024774 0.04429161 0.15523417 0.09569167
000260 13 55 e5 3c 59 ea 9d 3c cb aa b4 bd e1 31 aa 3d
       0.027994668 0.019276785 -0.08821639 0.08310295
000270 54 a9 8b be ee 58 ec 3d d5 e9 88 bc 97 88 12 be
       -0.27277625 0.115403995 -0.016713062 -0.14309917
000280 1c cd a3 bb 6d e0 ac bb 31 c8 43 3d 22 5c 7e 3d
       -0.004998816 -0.005275777 0.04779834 0.062099583
000290 cd 60 fd 3c 8f 58 e2 3d 86 b9 aa bd 04 21 10 3e
       0.030929947 0.110520475 -0.08336167 0.14075094
0002a0 55 1c 58 bd b1 ac 17 3e fe 66 56 bd 60 40 e4 bb
       -0.052761395 0.1481197 -0.052344315 -0.006965682
0002b0 29 fb 0f be 92 67 be bd 29 15 41 bd c0 49 21 be
       -0.14060654 -0.09297098 -0.04713932 -0.1575079
0002c0 bb 12 45 bd 27 93 32 3d fe 44 22 3e 4b 65 89 bd
       -0.048113566 0.043597367 0.15846631 -0.06708773
0002d0 b0 da 02 3e 64 b7 07 be 81 ea 62 bd 11 0e 1b be
       0.12778735 -0.13253552 -0.05539942 -0.15142085
0002e0 91 1f f1 3d 4d f9 a7 be 23 2d 3a bd 84 0e cd 3c
       0.11773599 -0.3280739 -0.045453202 0.025031336
0002f0 3d 45 b6 bc 9e 30 3e 3d c7 67 be 3d e6 ce 98 3d
       -0.022249812 0.046433084 0.09297138 0.07461338
000300 dd 9b 34 3d 85 3f 0c 3e 18 55 aa bc 4b 28 d6 bd
       0.044093955 0.13696106 -0.020792529 -0.10456904
000310 08 ca 79 bd 33 da 09 3d af 3a b4 bd 09 92 a6 3d
       -0.060983688 0.033655357 -0.088002555 0.08133323
000320 3e cf 14 be de 65 fa 3d 4d bf b1 3c 13 2b 66 bd
       -0.14532182 0.12226461 0.021697665 -0.056193423
000330 4a f6 4d bd 8e c4 90 3b e4 61 c8 bd ef 8f 65 be
       -0.050283708 0.0044179624 -0.09784296 -0.22418188
000340 42 90 a1 3d 3c d5 2e bd a5 46 ce 3e da 4a f3 bd
       0.07888843 -0.042683825 0.40288273 -0.11879511
000350 1a 07 81 3c 31 35 cc 3d f0 e0 16 be 5f 5a 9e 3d
       0.015750457 0.09971083 -0.14734244 0.07732081
000360 16 46 c2 3d da a4 e8 bd 74 6a 1a be 9e 68 3c bd
       0.09486024 -0.11359568 -0.15079671 -0.04599821
000370 be d9 5c bd 7f cb 30 3e 12 dd 45 3d 5a 21 8e 3c
       -0.053918593 0.17265128 0.048306532 0.017349888
000380 ec cd 6a bd 32 2a 89 3d 96 67 03 3e c7 21 b7 3b
       -0.05732529 0.06697501 0.12832484 0.0055887434
000390 37 16 93 bd 58 e3 17 bd 20 b4 1b be 32 a0 09 3e
       -0.071819715 -0.037082046 -0.15205431 0.13440016
0003a0 76 61 c8 bc ca d8 72 bd 5d 5b 3d 3d ef bf 5f be
       -0.024460535 -0.059288777 0.04622971 -0.2185056
0003b0 ba ca 32 bc dc 24 69 3c e4 19 dc bd ae 04 6f bd
       -0.010912592 0.014229979 -0.10747126 -0.058354072
0003c0 22 bc b8 ba af b3 b8 3c 71 9f ab 3c e7 d5 57 bc
       -0.0014094154 0.022546617 0.020950051 -0.013173557
0003d0 75 a6 c7 3c d2 1d 82 bd b5 6f 2e 3c db e3 0e 3e
       0.024371365 -0.06353344 0.01064675 0.13954107
0003e0 a5 0e af 3c 53 84 08 bd 10 e1 03 be 78 84 08 3d
       0.021369288 -0.03332932 -0.12878823 0.033329457
0003f0 24 33 78 bc ed fa c8 bd 4f 79 cb bb 0a db 74 3e
       -0.015148912 -0.09813485 -0.0062095295 0.23911682

prior.prior.2.bias f4 [256]
000000 e5 09 12 3d b4 2c fb bc 78 be 5f 3d a6 94 df bb
       0.035653967 -0.030660965 0.054625005 -0.00682314
000010 a3 3e 32 bc 9b 15 e8 bb cd 62 4b bc f5 bd 2b bd
       -0.010879192 -0.0070826537 -0.012413693 -0.041929204
000020 6a f8 09 3d 7b 48 5f bc bc 81 ad bc 33 39 e9 3c
       0.03368417 -0.0136281205 -0.021180026 0.028469658
000030 fe d6 2a 3d c3 da c9 3b 01 fc 2c 3d 80 9b 0d bc
       0.04170894 0.0061601116 0.042232517 -0.008643031
000040 14 15 33 bb aa a4 18 bd b1 09 2a bd 79 f1 1c 3d
       -0.0027325796 -0.03726641 -0.04151315 0.038316224
000050 4d 91 8b 3d de ec ad ba e0 d9 eb 3a c1 43 af bc
       0.06814823 -0.0013269444 0.0017994009 -0.021394612
000060 fd 2f 7c bd 46 8c fb bc d0 8a 5e bb 30 b9 d2 bc
       -0.061569203 -0.030706536 -0.003395725 -0.02572307
000070 a6 2c 40 bd 06 8e a6 3d 53 4d 85 3b 2a 6c 86 bd
       -0.04691758 0.081325576 0.0040680557 -0.065635994
000080 b0 7b 54 3d 75 ea 3f 3d 25 ab cd 3d 8e 34 11 bd
       0.05187577 0.046854455 0.10042409 -0.03545051
000090 b3 34 02 3d 29 92 8c bd bf f0 9f bb 13 ea 08 3c
       0.03178854 -0.06863815 -0.004880994 0.008356589
0000a0 12 e0 59 bc 47 eb 08 bd c7 35 24 bc 32 ce a7 3b
       -0.013298051 -0.033427503 -0.010022587 0.005121016
0000b0 65 dc 5a bd e5 e7 10 3d f5 42 ae bc a3 cf 8b bc
       -0.05343284 0.0353774 -0.021272162 -0.017066782
0000c0 52 01 29 bd 3b 6d b4 bc 96 1b 10 3d 62 e1 d7 bd
       -0.041261025 -0.022024741 0.035182558 -0.10541035
0000d0 7d 38 a9 bc a0 8f ce bc de 19 1c 3d dd 3b d0 bc
       -0.020656819 -0.02521497 0.038110606 -0.02541917
0000e0 b5 47 b9 bd bb cf b5 3c 83 f6 c7 3c c1 b0 7e 3d
       -0.0904688 0.02219378 0.024409538 0.062180284
0000f0 a1 27 fa bb 8f 6f 1c bc 1e c8 59 3c 4f 93 0e 3b
       -0.0076341187 -0.009548082 0.013292341 0.0021755283
000100 98 ab 13 bd 7f 85 37 bb 51 52 21 3d 0b 12 32 bb
       -0.036052316 -0.0028003154 0.039385144 -0.00271714
000110 b2 a4 3b bd 39 8c 4c 3c 09 24 7a bd 38 2e 5a bd
       -0.045811363 0.012484604 -0.061069522 -0.053266734
000120 e5 67 80 bc 95 59 9b 3c e9 e9 2f 3d 08 e5 eb 3c
       -0.01567454 0.018963614 0.042947683 0.028795734
000130 73 dc 63 bd fb 16 f0 bc c9 c7 3d bd fa 00 b7 bc
       -0.05563016 -0.029307833 -0.046333108 -0.022339333
000140 27 49 ef bb 2f 51 04 3d af 22 91 bd 7e 10 80 3d
       -0.0073024216 0.032303985 -0.070866935 0.06253146
000150 7c 2a 59 bc 5b 6f 72 3d ec 6d 31 bd c3 84 11 3d
       -0.013254758 0.059188228 -0.04331772 0.035527002
000160 a2 b3 b9 bd b2 29 38 3d 57 99 7f bd 69 5b 05 3a
       -0.09067465 0.04496164 -0.062402096 0.00050871685
000170 f4 92 1f bd a1 01 71 bd 22 68 29 bd 3d 16 1e 3d
       -0.038958505 -0.058839444 -0.041359074 0.038595427
000180 9b 7a 1f bd 1c 8d 9e bd 91 ab ce bc 65 0d 6f 3d
       -0.038935285 -0.07741758 -0.025228294 0.058362383
000190 a9 67 2e bd 72 79 c9 3c ff d5 3f bd 0a 33 7d ba
       -0.042579327 0.024594042 -0.046834942 -0.00096587895
0001a0 1e cf 5c bd 37 1c e5 ba 29 6d a7 bd e9 ad 39 bd
       -0.05390846 -0.0017479722 -0.081751175 -0.04533187
0001b0 7e a5 49 3c 81 7c 42 bd 70 04 49 bd 20 9d 0a bd
       0.012307523 -0.047482017 -0.049076498 -0.033841252
0001c0 be 02 15 3c 8a 43 6b bd 2b f3 11 bd 44 32 14 3c
       0.009094892 -0.057437457 -0.035632294 0.009045187
0001d0 ed c8 05 3d 56 03 34 bd ba fd 50 3c 88 87 20 bd
       0.03266232 -0.043948494 0.012755806 -0.039191753
0001e0 ef 68 b8 bd 66 ab 0a bc fa a0 b4 3c c1 99 bc 3d
       -0.090043895 -0.008463716 0.022049416 0.09209014
0001f0 29 c9 f3 ba 73 6f 2b 3c 53 9a e1 3c 39 81 3e 3d
       -0.0018599379 0.010463583 0.027539408 0.046509955
000200 94 b4 a0 bc 1f 96 03 3c df b6 8c 3b 90 2b 43 bd
       -0.019617356 0.008031397 0.004294261 -0.047648966
000210 f2 eb 14 bd b2 25 bd bc 23 87 53 3d 64 6e eb bc
       -0.036357827 -0.023089264 0.05164255 -0.028739162
000220 3d 73 96 bb 33 50 4e bd 6f 34 c0 3d 41 5d ae bc
       -0.004591374 -0.050369453 0.09385001 -0.021284701
000230 54 79 9e bc 94 c1 9b bb b7 05 1c 3d 5b 59 60 bd
       -0.019344963 -0.004753301 0.038091388 -0.054772716
000240 c5 c3 7f bc e1 6c 10 3d 9e d6 8d 3c 85 7b 6d 3a
       -0.01561064 0.035260085 0.017314252 0.00090592384
000250 a6 40 a0 bc e3 ea 1e 3d 1d d3 f3 bc 27 22 a4 bd
       -0.019562077 0.038798224 -0.029763753 -0.080143265
000260 92 4a c0 3d f9 bd 46 3c 45 c5 1a 3d 69 2d 46 bd
       0.09389223 0.012130254 0.037785787 -0.04838315
000270 c3 17 d7 3d 13 86 05 bc 82 89 8b bd 98 d3 f9 bb
       0.10502579 -0.008149642 -0.06813337 -0.007624101
000280 12 d9 e5 bd 64 6d 42 bd 47 b8 24 3c 94 15 ea bc
       -0.112230435 -0.047467604 0.010053701 -0.028574742
000290 74 7c 5a bd 00 0f fa 3a 5b 85 20 bd 14 32 2d bd
       -0.053341344 0.0019077957 -0.039189678 -0.042284086
0002a0 43 ea 9b bd 31 fc 20 ba f0 e0 84 3c 64 f0 36 bd
       -0.07613041 -0.0006141095 0.01622054 -0.044662848
0002b0 5f 5e d9 bb 66 3b 6f 3d 2c 2d 46 bd a5 28 ab bb
       -0.0066335644 0.058406256 -0.048382923 -0.005223351
0002c0 f9 25 b6 3c 3b 33 a0 3c e7 38 04 3d 68 08 be bd
       0.022234904 0.019555679 0.03228083 -0.09278947
0002d0 6a 77 ab 3d 1c 22 88 bd 1b 1d fb bc bc ce 97 bb
       0.08372386 -0.06647131 -0.030653527 -0.004632799
0002e0 ec f8 1d be ee 4d f7 3d 1c 9f 52 bd 6a ce df 3b
       -0.15426987 0.12075411 -0.05142127 0.0068300264
0002f0 49 b5 40 bd ec e9 9a 3c 2f 9d 53 3d cf 9f 33 3d
       -0.047047887 0.01891037 0.051663574 0.043853577
000300 27 5f 39 3d 25 d6 1e bd 58 b0 d8 bc 10 8a 47 bb
       0.04525676 -0.038778443 -0.026451275 -0.0030447282
000310 5b 6c 3c bd 75 b5 13 3c 3e b9 a0 bc e9 a5 0e 3d
       -0.046001773 0.009015431 -0.01961958 0.034826193
000320 de 81 2d 3d 78 df 07 bc f0 38 95 bd af 37 95 bd
       0.04236018 -0.008293025 -0.072862506 -0.072860114
000330 d1 c7 7a 3c 2d 68 9a 3c 5b e7 a0 3d 19 c7 c3 3a
       0.015306429 0.018848503 0.078566276 0.0014936655
000340 0b 7e fd bb 8f 08 56 bd a2 81 ea 3c 11 d4 97 bc
       -0.0077359728 -0.052254256 0.028626267 -0.018533738
000350 3f 87 36 3b 50 04 b3 3c 85 51 3e 3d 20 1f 96 bd
       0.002785161 0.021852642 0.04646446 -0.073301554
000360 45 71 59 bd bc 20 96 bd a4 f7 84 bc 20 f3 41 3d
       -0.053086538 -0.07330462 -0.016231366 0.047351003
000370 ee 1a 60 3d 65 15 05 3b 3c d7 3b 3c 52 64 58 bc
       0.054713182 0.0020306942 0.01146489 -0.013207512
000380 c0 b7 0f 3d fd 5c 9e bc 74 5d 65 bd aa b4 b7 3c
       0.035087347 -0.01933145 -0.055997327 0.022425015
000390 fa 82 09 be 07 3b 1a 3d 3a e1 0d 3d bd 2d a7 3b
       -0.1342887 0.03765395 0.03463862 0.005101888
0003a0 7d db f0 bb f1 36 1a 3c 53 2d f7 bc d1 03 a5 bc
       -0.007350384 0.009412513 -0.03017298 -0.020143421
0003b0 8c b8 d3 3c 1f a4 8c 3b ea 4c 77 bc ca f5 94 3d
       0.025844835 0.0042920257 -0.015094021 0.07273443
0003c0 2c b5 19 bb 11 af 48 bd a9 19 e5 b9 6e 2d db bc
       -0.0023453934 -0.04899508 -0.00043697402 -0.026755061
0003d0 45 4f 81 bd c4 b5 d3 bc e5 0d 17 3c 79 cb 09 bd
       -0.063139476 -0.025843509 0.009219621 -0.033641312
0003e0 0f 79 9b 3d 44 36 27 3d 9d 68 4d bc 52 85 38 bd
       0.075914495 0.040823236 -0.012537149 -0.04504902
0003f0 5f 68 0c 3a 8a 3e 5e bd 3e 4f cd bc 2a 64 58 3d
       0.00053561287 -0.05425886 -0.0250622 0.0528299

prior.prior.4.weight f4 [3, 256]
000000 c6 eb 21 be bf 54 27 bb fc 75 64 3c 92 ab 18 ba
       -0.15812597 -0.002553269 0.013944145 -0.0005823906
000010 87 94 30 3d 9d ad a5 b9 0c c1 e7 bb 97 9f 4c bd
       0.043110397 -0.00031600604 -0.0070725735 -0.049956884
000020 47 08 d9 b9 bb 7b 30 3d 6c 96 6f b9 8b 93 22 b8
       -0.00041395632 0.04308675 -0.00022848853 -3.876122e-05
000030 36 8e 54 bd a9 71 e4 39 98 5e b9 38 10 39 c6 3c
       -0.051893435 0.00043572232 8.839107e-05 0.024197131
000040 6c de f1 bc 66 82 40 3a 7b 2c f8 3c dc d4 4a ba
       -0.029525004 0.00073436496 0.030294647 -0.0007737407
000050 29 53 02 ba 05 48 bb bb 90 b5 b1 bb 6d 8e 53 36
       -0.0004971498 -0.0057153725 -0.0054232553 3.1524353e-06
000060 1d 8e df 3b 40 bb 0f bc e3 cd 77 39 74 77 8d 3d
       0.006822361 -0.008772671 0.00023632454 0.069075495
000070 2d 63 5d 3d fd 1d 87 3d 19 be c4 36 fe 5e 05 38
       0.05404966 0.06597517 5.8633855e-06 3.179814e-05
000080 ad f4 29 bc d1 42 bc bb ae 9f 41 bd fb 58 50 3d
       -0.010373277 -0.00574527 -0.047271423 0.05086611
000090 6d 4f 02 bd 37 bf 7a 3d 99 68 3e bd 47 ff 3e bd
       -0.031814028 0.061217513 -0.04648647 -0.04663017
0000a0 f2 6f 24 bd ab 53 bf 3a 83 d2 0b bd 40 0c 96 bc
       -0.040145822 0.0014597079 -0.034136306 -0.018316388
0000b0 f7 3a 85 bc 8a c9 90 39 39 2d c0 3c 7a 1d 74 3d
       -0.016263468 0.0002761598 0.023459064 0.059598424
0000c0 11 aa e5 39 ce 03 7b bd b8 a8 29 3d 90 61 ce 3c
       0.00043804993 -0.061282925 0.04142067 0.025193006
0000d0 fd e2 43 3c 8b 57 f8 3c 04 d8 92 3d 5f 7f 8d ba
       0.011955974 0.030315181 0.07170108 -0.0010795406
0000e0 8d 60 87 3d 38 dd 8b 3a 50 46 d6 bc dc e1 52 ba
       0.066102125 0.0010670787 -0.026156574 -0.000804452
0000f0 bf e1 a1 3c 9f 5e 29 3a 9c 4e e9 bc 60 c1 2f bd
       0.019760964 0.0006460938 -0.028479867 -0.042909026
000100 5a d3 90 39 5f 63 f4 bc 81 ad 2c 3d 9e cb bb ba
       0.0002762329 -0.02983254 0.042157654 -0.001432765
000110 53 66 94 bc 1c f7 56 3d a6 aa 73 39 cf a9 a5 b9
       -0.018115198 0.052481756 0.00023237857 -0.0003159777
000120 b6 85 ec bc bb 26 dc 3c 1f be 57 3a af c6 35 3a
       -0.028872352 0.026873937 0.00082299294 0.0006934208
000130 6f 1a 52 3a ee 99 95 bd 17 8f 95 39 7c 55 d9 3c
       0.0008014803 -0.073047504 0.00028526105 0.02653002
000140 b5 94 51 3c f6 9f 15 bc 16 24 80 3d 89 dd 23 b9
       0.012791802 -0.009132376 0.06256883 -0.0001562742
000150 07 f2 2e bd 4b 78 40 39 37 8e 13 3a b7 a8 87 b8
       -0.042711284 0.0001835536 0.00056287966 -6.468727e-05
000160 65 dd 25 3d e7 1b 12 ba f3 7f 1a 3d dd 0f 03 3b
       0.04049434 -0.0005573616 0.037719678 0.001999847
000170 bf 3a f3 bc 9a ed 72 b9 84 6a d2 bb ec f8 87 3d
       -0.029691098 -0.00023167432 -0.006421389 0.06639275
000180 4e de 19 3d 7d d2 5f 3d 0e ce a8 b9 6f 0c 05 bd
       0.037565522 0.054644097 -0.0003219698 -0.03248256
000190 59 9a dd b9 6b a7 37 3d 0e 99 65 ba 84 1d 1e 3c
       -0.00042267403 0.044837397 -0.00087584637 0.009650592
0001a0 34 63 ca 3b 9d ff 35 bc d0 84 cd ba 62 28 02 3d
       0.0061763767 -0.011108306 -0.001567984 0.031776793
0001b0 1a af 8a b9 33 b5 c5 b7 9a 27 30 3d b8 b6 c7 bc
       -0.00026451872 -2.3568608e-05 0.043006517 -0.02437912
0001c0 75 a6 1f bd 4b ed a3 3c 43 9e 7c bc da d1 00 3d
       -0.038977105 0.020010611 -0.015418592 0.03145013
0001d0 50 2e 6e b8 01 bc 47 3d b7 aa 4f bc 0d c5 ab b9
       -5.6786754e-05 0.04876328 -0.012674979 -0.00032762476
0001e0 12 53 92 3c 70 c1 93 3c 94 67 0a ba 5c a7 42 bd
       0.017861877 0.018036574 -0.00052797166 -0.047522888
0001f0 d0 0c c1 bb c9 a0 97 3c 06 95 c5 39 aa f8 0c bd
       -0.00589142 0.018509286 0.000376858 -0.034416832
000200 7e e9 1b bd a2 3d c3 bc 85 56 15 3d f0 22 41 3d
       -0.038064472 -0.0238331 0.036459465 0.04715246
000210 2d 82 31 3b f8 87 ab bb 53 3d 65 bc 2f d1 31 bd
       0.0027085647 -0.0052347146 -0.013991672 -0.043412384
000220 4e a6 54 ba 55 62 ae 3c 62 b3 24 bd 58 0e 57 bd
       -0.00081119395 0.021287123 -0.040210135 -0.052503914
000230 3e 0d bd bb 51 00 9e bb d9 2a 04 3b b7 d7 ce bc
       -0.005769401 -0.004821815 0.002016714 -0.025249345
000240 7a 74 17 bc b4 3d 54 bd 16 45 4b b8 9b 67 f3 3b
       -0.009244079 -0.051816657 -4.8463313e-05 0.007428122
000250 15 2d c6 3c 83 ff da 38 16 96 1e 3d 27 f4 03 3c
       0.024191419 0.00010442643 0.03871735 0.008053816
000260 08 ff 5a bc 76 ac 92 3c 81 55 21 bd d1 63 95 3a
       -0.013366468 0.017904501 -0.039388184 0.0011397545
000270 91 68 17 bd 92 c5 d9 bb 99 d3 21 b9 1b b3 28 bc
       -0.036964957 -0.0066458667 -0.00015432983 -0.010296608
000280 87 dc 80 3d 42 ed 64 3c 59 fb 8a bc 0f ff 40 bd
       0.06292062 0.013972582 -0.016965555 -0.047118243
000290 51 07 16 3b 81 d0 2b 3d 9c 62 68 3d 21 78 cb 3c
       0.0022892545 0.04194689 0.056734666 0.024837555
0002a0 6a 15 9c 3d 14 8d eb bc 75 c9 42 3d 10 81 3c 3a
       0.07621272 -0.028753795 0.047555406 0.00071908627
0002b0 30 e7 71 bd b3 80 4f bd be 3a 37 3c fa cf 19 3a
       -0.05905837 -0.050659847 0.011183439 0.0005867478
0002c0 a6 d1 1d 39 dd 02 5f b9 99 dd 2f bd 88 ca 7c 3d
       0.00015050787 -0.00021268004 -0.04293594 0.061716586
0002d0 90 68 cd bc f6 97 18 3c 40 53 7e bd b0 0b 94 3c
       -0.025074273 0.009313574 -0.062091112 0.01807198
0002e0 95 2a 87 3d 46 01 93 bd 80 4a 84 3c 2c 19 fa 3c
       0.06599919 -0.07177977 0.016148806 0.030529581
0002f0 d0 34 00 3d 92 05 43 bd 76 d6 4a bc 08 be 6b bd
       0.031300366 -0.047612734 -0.012380233 -0.057554275
000300 28 7d 0b bd 8f c6 84 b8 a5 35 5d 36 c3 f8 0e bd
       -0.034054905 -6.331235e-05 3.2962791e-06 -0.034905206
000310 4f 8e 55 3d e0 90 04 bd 6d de e2 bc c8 56 4f 3d
       0.05213767 -0.032364726 -0.027693952 0.05061987
000320 7a 37 4e b9 b6 a3 34 bc c3 e6 39 35 a8 dc f3 37
       -0.00019666358 -0.01102536 6.9253673e-07 2.9070608e-05
000330 14 b1 91 3c c0 bc d9 3c 6c 97 4c 3d 26 b7 a9 3c
       0.017784633 0.02657926 0.049949095 0.020717215
000340 0c 5d 15 3c 43 ea 1a 3d df 0d bd 3c ce 6c 97 38
       0.009116422 0.037821066 0.023077903 7.2205075e-05
000350 ec 81 40 bd d6 26 ae b9 78 56 0e bd 08 13 26 3c
       -0.046998903 -0.000332168 -0.03475043 0.010136373
000360 7d 53 35 3d 53 b0 0c 3d eb ff 92 39 e8 27 78 bc
       0.044269074 0.034347843 0.00028037964 -0.015146233
000370 5f 08 6b 3a b1 25 9c bc ed 97 16 b9 0a 05 bb 3c
       0.0008965786 -0.019060941 -0.00014361712 0.022829551
000380 e3 42 12 3d d0 60 30 bc 0f 08 a1 bb ed f3 83 bd
       0.03570832 -0.010765269 -0.0049142907 -0.064430095
000390 b9 90 97 3c cd 0e d3 3b 01 28 5e bd eb 87 10 b9
       0.018501626 0.0064409734 -0.05423737 -0.00013783544
0003a0 9a 23 11 3d 94 63 00 bd c2 50 0c 3a 4e 30 b7 39
       0.035434343 -0.031344965 0.000535261 0.0003494047
0003b0 07 e9 22 bd c6 6d bd 3b 48 4b 12 3c d5 50 63 bd
       -0.039773013 0.0057809083 0.008929081 -0.05549701
0003c0 dd 7d 9f 3d e1 1e 21 3d b5 b1 26 39 eb ad bd 3a
       0.077876784 0.03933609 0.00015897195 0.0014471387
0003d0 75 13 87 3d b4 60 e8 39 63 ea 52 3b 11 f4 23 3c
       0.06595508 0.00044322538 0.0032183162 0.01000692
0003e0 56 d5 e6 39 6f b5 32 bd 41 f3 19 3d 87 1d dc 3b
       0.00044027966 -0.04363006 0.0375855 0.006717387
0003f0 5d a7 12 3a f2 5c e0 3c 81 01 34 ba 9e 3b 30 bc
       0.0005594397 0.02738807 -0.0006866679 -0.010756401

prior.prior.4.bias f4 [3]
000000 93 64 5d bd 93 50 08 bd 4b 38 06 bd
       -0.054050993 -0.033279967 -0.03276853

encoder.gru.weight_ih_l0 f4 [192, 40]
000000 54 fd 83 3e 17 25 88 3e 89 09 8b be 1f fc 06 3f
       0.25779212 0.26590797 -0.27155712 0.52728456
000010 a2 49 50 be a1 5b d2 be 41 73 01 be e4 0c 8f 3d
       -0.20340589 -0.41085532 -0.12641622 0.069848806
000020 a6 4e 9f bd 61 04 87 be 9b 8e ca 3e ab 8f b1 3c
       -0.07778673 -0.26370528 0.39561924 0.021674952
000030 ed 1a 0a be b4 f8 f9 bd af 2b 0b be 5c 35 75 be
       -0.13486834 -0.122056395 -0.13590883 -0.23946136
000040 40 66 18 bb ab b4 e6 be 3b 7a 78 3e 12 22 9b 3e
       -0.0023254305 -0.45059714 0.24265377 0.3029943
000050 19 39 2d 3e b8 e1 af bd a9 21 dd bc d1 c9 cb 3e
       0.16916312 -0.08587974 -0.02699359 0.3980241
000060 41 23 32 bc a9 10 0b bf 74 2b 88 be c6 8d 95 3e
       -0.010872663 -0.54322296 -0.26595652 0.29209727
000070 4b 9d 77 be 6c fb 60 3e e7 4c a5 3e 23 2a 0f 3e
       -0.24181096 0.2197091 0.32285234 0.13980918
000080 73 28 8f 3e db 56 84 3e 8f c2 bc 3d 3f 39 c0 3e
       0.27960548 0.25847515 0.092167966 0.37543675
000090 3b 19 d1 be 45 1b 76 3e 7d 4f 10 3f ae bf 3a 3d
       -0.40839562 0.2403384 0.5637129 0.045592956
0000a0 c7 5e da be f4 2a a0 3d af 11 5c bc 04 d2 cf bd
       -0.42650434 0.07820693 -0.0134319505 -0.10147479
0000b0 6a ed 0d 3e 43 97 a3 3d d8 26 cc bd 99 0e d8 bd
       0.13860098 0.07987835 -0.09968346 -0.10549659
0000c0 6d 96 0d 3f 09 30 88 3e 84 15 27 bf 9c 36 2b be
       0.55307657 0.26599148 -0.65267205 -0.1672005
0000d0 6d 54 04 3e 24 7a 89 3e 67 ba cb 3e 6e cc 92 3e
       0.12922831 0.26850998 0.3979065 0.28671592
0000e0 53 b8 0f 3e 5f 51 85 bc 77 e0 0a 3e a2 43 64 be
       0.14035158 -0.016274152 0.13562189 -0.22291425
0000f0 09 b3 0a bf 07 db 2d 3e b0 01 08 3e 34 fb b7 3d
       -0.54179436 0.16978084 0.13281894 0.0898346
000100 47 39 9f 3d 1e c5 62 3e 32 aa cd bd e3 fe 82 3d
       0.07774597 0.22145507 -0.10042228 0.06396272
000110 6c a7 d6 3e 4c f1 12 be d1 f8 a7 3e 53 f7 69 be
       0.41924608 -0.1434986 0.3280702 -0.22848253
000120 b7 d6 a1 be bb e0 14 3c 50 db 00 be e3 e9 0a 3e
       -0.31609127 0.009086783 -0.12583661 0.13565783
000130 15 f4 3e 3f ff eb 11 bf 1c 72 23 bf a8 5a 12 be
       0.7459119 -0.57000726 -0.6384599 -0.14292395
000140 3d d8 38 bf 1e ba cc 3d 54 15 71 3d 01 89 a7 3e
       -0.72204953 0.099964365 0.05885823 0.32721713
000150 c0 16 a1 bc 37 e6 6d be f7 57 dd bd 06 c4 13 be
       -0.019664168 -0.23232351 -0.108077936 -0.14430246
000160 aa 96 65 3f 54 9c 92 3f 98 71 49 bf b0 c0 a3 bd
       0.8968302 1.1453958 -0.78688955 -0.079957366
000170 3e 8d 68 3e d8 90 68 3e 08 2e 32 3f 0f f7 5f 3e
       0.2271013 0.22711504 0.6960149 0.21871589
000180 8e 38 e9 3d 5c 0d 18 bf be 12 05 3e b0 52 6a 3e
       0.1138774 -0.59395385 0.12995431 0.22883105
000190 54 eb 1a bf 10 d6 6d 3e 34 04 a1 3e 6f 2f 64 bd
       -0.6051533 0.2322619 0.3144852 -0.0557093
0001a0 65 63 76 3e 73 35 29 bf 38 83 7e be e9 62 cf 3d
       0.24061354 -0.6609718 -0.24854743 0.101262875
0001b0 de 97 29 3f a8 cf 7d bd 5d bf 5b 3d 98 27 a4 3d
       0.66247356 -0.061965615 0.053649295 0.080153644
0001c0 b1 fd e0 be 83 5d 7d 3e dc 17 8e be eb 0c 2c bd
       -0.4394355 0.24742703 -0.27752578 -0.042004507
0001d0 85 b7 22 3f 40 5c 50 bf 86 fa 8c bf 10 04 ba be
       0.6356128 -0.8139076 -1.1013954 -0.36331224
0001e0 f1 83 9d 3d b8 71 15 bd 8d 50 56 bc 23 0e 05 bd
       0.076911815 -0.036485404 -0.013080728 -0.032484185
0001f0 bb 78 ff bd 1f 51 b2 3c a1 f6 00 3c 9f 06 84 3e
       -0.124741994 0.021767197 0.007871301 0.25786301
000200 35 09 5a 3c 8d bc c7 3a 28 38 c9 3d 26 d9 f2 bc
       0.013307859 0.0015238688 0.09825164 -0.02964456
000210 e6 67 e3 bc 08 87 03 3d 55 cb c1 bd ee ca 81 b9
       -0.027759504 0.032111198 -0.09462611 -0.00024755992
000220 48 4e 95 3b a8 02 2f bb 05 da df bd 29 4f 51 3d
       0.004556451 -0.0026704464 -0.10930256 0.051100884
000230 0c 61 c1 bd 99 b1 11 3d b2 30 68 be 8a 4a 93 bc
       -0.09442338 0.03556976 -0.22674826 -0.017979879
000240 38 ec 3b be a0 14 02 3d f4 b9 c9 bd 6e 29 00 bd
       -0.18351829 0.03175795 -0.09849921 -0.03128951
000250 82 ea 75 3d 11 99 12 3e 98 98 0e 3e fe 23 dd 3d
       0.060038097 0.14316203 0.13925397 0.107978806
000260 b6 09 4d 3d 5f bf 80 3d 96 99 77 3e f2 33 3d bc
       0.05005809 0.06286501 0.24179682 -0.011548029
000270 7b 35 6f 3d ea cd cc 3d 41 2a 32 bd dc de c3 3a
       0.058400612 0.100002125 -0.043497328 0.0014943737
000280 b1 65 c1 bd 26 a6 97 3c c3 f1 8f bd e4 b3 b4 bd
       -0.09443224 0.018511843 -0.07028534 -0.08823374
000290 38 83 18 3d a3 0d 8d 3d bf 29 01 3e ae cd fb 3c
       0.037234515 0.068873666 0.12613581 0.030737724
0002a0 80 57 55 bd 6b 2a 1f bd 52 5e ab bc 26 20 21 be
       -0.0520854 -0.038858812 -0.020918999 -0.1573492
0002b0 95 09 9f 3d d9 74 14 bd 23 3e c7 3c 1e aa a3 3d
       0.077654995 -0.036244247 0.024321621 0.07991432
0002c0 76 cb f8 bd ba 33 62 3d 0e e1 aa bc e8 4d 9c bc
       -0.12148182 0.05522511 -0.020859268 -0.019080117
0002d0 73 60 3c bd 93 fa b6 bd cc c4 81 3d 56 cb bb 3d
       -0.04599042 -0.08934512 0.06336364 0.091696426
0002e0 5f d0 81 3d df 76 c4 3d f6 df f7 bc 98 42 20 3c
       0.06338572 0.09592985 -0.03025816 0.009781502
0002f0 9d 5b 07 3e d7 2b 88 bc e9 83 36 3d 68 2c cc 3d
       0.13218541 -0.016622467 0.044559393 0.09969407
000300 75 ce 98 bd fb 02 0e 3d 5e 6f 91 bd af 11 ef 3d
       -0.074612536 0.03467081 -0.0710132 0.11673295
000310 46 bd 81 3d 22 f7 f0 3c 85 fa 7f be fd 12 17 3d
       0.06334929 0.029414717 -0.2499791 0.036883343
000320 b2 37 cc 3d 9c d9 58 3d 63 c9 0c 3d a8 e0 ac bd
       0.099715605 0.052941903 0.034371745 -0.08441287
000330 28 9c 92 3c 50 0b c9 3d ed da 12 3e 73 6c 16 3d
       0.017896727 0.09816611 0.14341326 0.03672452
000340 f5 9b b2 bd 7c ae 2c 3d af 2a 01 bd 3a 68 02 3e
       -0.08721153 0.04215859 -0.031534847 0.12735072
000350 52 3e 41 bd aa 56 63 bd e5 31 22 3d 82 f9 1f 3b
       -0.047178574 -0.05550257 0.039598364 0.0024410193
000360 1b 53 90 3d 3e 73 bf bc f0 83 34 bd 10 1f 11 3d
       0.07047101 -0.023370381 -0.044071138 0.035430014
000370 d7 a7 d2 39 4a 92 e1 3d 3f b9 f8 3d 93 73 be 3d
       0.00040179372 0.110142305 0.12144708 0.09299388
000380 71 34 ff bd 53 8a 10 bd 09 e7 ac 3d 05 54 21 be
       -0.12461174 -0.035288166 0.08442504 -0.15754707
000390 91 b8 38 bc c8 7b 77 bd 80 ef e3 bd 4d 85 6b bd
       -0.011274473 -0.06042078 -0.111296654 -0.057500172
0003a0 70 b2 c0 3d 6e 89 66 bd 50 1a 80 3d c5 6c 72 3d
       0.09409034 -0.056283407 0.06255019 0.059185762
0003b0 0a 42 8b bd 1c 97 e2 bd 7b f4 44 3d e3 f8 f4 3d
       -0.06799705 -0.11063978 0.048084717 0.11961534
0003c0 0e 0c 75 be 61 b2 9b 3e 36 9a c1 be fd e2 9b 3d
       -0.2393038 0.3040953 -0.37812966 0.07611654
0003d0 8f b0 97 be f1 72 94 be 07 9f d6 be e4 0a 13 be
       -0.2962689 -0.28993943 -0.41918203 -0.14359623
0003e0 e7 e5 dd 3e 1b 65 39 3f cc 70 69 be 6b 7f b5 bd
       0.43339464 0.724199 -0.22796935 -0.08862194
0003f0 65 5f 90 3d 34 ba 96 39 72 ee cf 3e 7c a4 0a 3d
       0.07049445 0.00028748962 0.40611607 0.03384827

encoder.gru.weight_hh_l0 f4 [192, 64]
000000 14 e7 75 3e 80 a9 e0 be 72 f0 85 3e 73 87 3b be
       0.2401393 -0.43879318 0.26160008 -0.18313389
000010 7f d7 58 3c f1 55 b5 3d 18 71 6b bf 42 fd 97 3c
       0.013234972 0.08854283 -0.9196944 0.01855338
000020 0c 1f 2a 3e 9f b6 26 3e 40 e7 52 3e b5 2b 0b bf
       0.16613406 0.16280602 0.20596027 -0.54363567
000030 89 0c dc bd c9 a5 f9 be 75 bb c0 be 98 fa 01 bd
       -0.107445784 -0.48759297 -0.37643018 -0.031733125
000040 77 fe e6 3e 8c 2e d6 3d c1 49 5a 3e 7c 06 13 3e
       0.45116016 0.10458097 0.21317197 0.14357942
000050 70 ef 87 3c ef 2e c6 3d 40 e1 31 3e 2e 98 13 be
       0.016593665 0.096769206 0.17371082 -0.1441352
000060 2c 4d 43 bd 60 ed 08 3f c9 1e ac 3e 0d 5d 26 be
       -0.04768102 0.53487206 0.33617237 -0.16246434
000070 89 49 61 bf b8 42 84 3e 7a 0d 13 be 6d 0b 62 be
       -0.8800283 0.25832152 -0.1436061 -0.22074671
000080 0e 7e 2b bd 8e 89 a6 bd 95 db 0e bd e8 65 59 3e
       -0.041868262 -0.08131705 -0.03487738 0.2123028
000090 85 30 4f bf 31 36 9a bd c3 f0 03 bc 0e 2b b1 3d
       -0.8093341 -0.075298674 -0.008053008 0.0865079
0000a0 2c d5 06 3f 7d 6c e0 be b8 25 52 bd 76 42 5d be
       0.52669024 -0.4383277 -0.051305503 -0.21607384
0000b0 c2 fe db be 9d 47 fb 3e 6e 9d bd bd ca 39 22 3f
       -0.42967802 0.49078074 -0.09258543 0.6336943
0000c0 7d 17 dc b8 2d e4 5c bd 57 35 9a be ae 6d 14 3f
       -0.000104947925 -0.053928543 -0.3011882 0.5797986
0000d0 29 cc 85 be cb 20 31 3f e6 bf 06 be b4 16 1b 3d
       -0.26132324 0.69190663 -0.13159141 0.03786345
0000e0 11 77 7c 3c a7 de 53 3e 3c 74 f8 3d d5 1a 1c bd
       0.015409247 0.20690404 0.12131545 -0.038111527
0000f0 a7 8e 39 3f ab 88 84 3d be 5f 9b 3e 9d d2 f9 3d
       0.72483295 0.0647138 0.30346483 0.121983744
000100 9e a8 7a 3e 07 c4 b6 be 7b 5a f3 3e 9b a2 3f bd
       0.24478385 -0.35696432 0.4752997 -0.046785932
000110 8b 77 b4 3e 74 be e3 be db 44 87 be f8 e0 f6 3c
       0.35247454 -0.44481242 -0.2641972 0.03013657
000120 d9 b4 e5 3e 87 f1 e3 3e 10 25 1c be c6 7d 07 bf
       0.44864538 0.44520208 -0.15248513 -0.5292629
000130 5a 91 e7 be 64 fa c8 be 46 70 4f be a9 54 7d be
       -0.45228082 -0.39253533 -0.20257673 -0.24739327
000140 7a 1b da be 70 26 b3 3e 0e e7 89 3e 7e 10 af 3e
       -0.42599088 0.34990263 0.26934093 0.3419227
000150 31 8b a9 be 23 6f 0f 3f 9b 9f 68 3d e7 d5 fa be
       -0.33114007 0.56028956 0.056792837 -0.4899132
000160 9d cc 04 bf 19 b0 ed 3e 6c b6 04 3e 5e eb c2 be
       -0.51874715 0.46423414 0.12960213 -0.38070196
000170 db 5a 27 bf 07 cc 25 3f ef 2f 28 bf 5d b8 97 be
       -0.6537301 0.64764446 -0.6569814 -0.29632846
000180 8c fb 19 be aa c2 78 3e 2c bf 8e be 0f ad 3b 3c
       -0.15037364 0.24293008 -0.27880228 0.011454835
000190 52 bf b6 3e 5c 9d 48 3e c4 cf ee be 68 11 cc 3e
       0.3569284 0.19591278 -0.46642888 0.3985703
0001a0 07 f9 3d be ce ef d1 be f0 5a e5 be b2 b9 aa 3d
       -0.18552028 -0.4100327 -0.44795942 0.083362
0001b0 02 21 e3 3e 71 28 cc be 99 86 84 3e 73 fc 14 3f
       0.4436112 -0.39874604 0.2588394 0.58197707
0001c0 a8 0f 1c 3e ee dc 99 3e a1 65 0a bf 54 67 04 3f
       0.15240347 0.30051368 -0.54061323 0.51720166
0001d0 6d 52 82 3e 5b e9 20 3f 76 09 9d be 2e ed c9 3e
       0.2545351 0.6285607 -0.3067128 0.39438766
0001e0 2c c0 c3 3d 3d bd a6 3e 55 0a b9 3c 08 ef 13 be
       0.09558138 0.32566252 0.022587935 -0.14446652
0001f0 4e 32 13 3f 21 39 ba 3d 39 9b 91 3d aa 14 de 3e
       0.57498634 0.09092928 0.071096845 0.4337514
000200 b0 0d 61 be 22 04 81 bf 65 1a 33 bf c8 9f 20 3f
       -0.21977878 -1.0079386 -0.6996215 0.62743807
000210 b0 e6 ac be 42 63 0e bf e1 44 69 bf 4f a5 3c be
       -0.3376975 -0.55620205 -0.91120726 -0.18422435
000220 d8 9e 7a 3f 8c c8 54 3f e5 56 7b bf 20 74 47 bf
       0.97898626 0.8311851 -0.98179466 -0.7791157
000230 73 38 58 bf 87 14 b0 be 2b ef e4 3e a3 a2 3c 3f
       -0.84461135 -0.3439066 0.4471372 0.73685664
000240 d4 1d 1e 3e 8c ee 66 3f 19 ba 17 3f be 28 2d be
       0.15441066 0.90207744 0.5926834 -0.16910073
000250 cb 73 67 bf 76 b2 91 3f f0 13 65 bf 28 b2 8f bd
       -0.9041106 1.1382587 -0.8948355 -0.070164025
000260 f8 c3 1a 3d 41 26 60 3f f7 dc cd 3e 57 0f c5 3d
       0.037784547 0.8755837 0.40207645 0.096220665
000270 62 2f 35 bf 3a b1 83 3d 90 39 88 bf f7 7e 9a 3f
       -0.70775425 0.06430288 -1.0642567 1.2069997
000280 1b c4 70 3e 91 de 80 3e 8d be d6 3e 0e 2c 32 bf
       0.23512308 0.25169805 0.41942254 -0.6959847
000290 2a e6 7a 3f d7 09 6d bf 87 7c 7d bf c8 12 a1 3e
       0.9800745 -0.9259314 -0.9901814 0.3145964
0002a0 cd ec 98 3e 6e 22 d7 3e 4b 15 08 3f 77 b4 01 3e
       0.29868165 0.42018455 0.5315749 0.12666498
0002b0 1b e6 80 3f 27 f2 7b bf 41 9c 37 3f c3 7c f3 3e
       1.0070223 -0.9841637 0.717228 0.47556123
0002c0 90 14 7b bf b9 d9 8b bf 29 98 b8 be a2 4e 02 3f
       -0.9807825 -1.0925819 -0.3605359 0.50901234
0002d0 7d 5e 32 3f 53 82 83 3f 20 a5 05 bf 36 22 5d 3f
       0.6967543 1.0274147 -0.52205086 0.86380327
0002e0 b1 4c 92 bf f2 63 12 be 9d ec 36 bd 7e d7 d6 3c
       -1.1429654 -0.14295939 -0.044659246 0.026225802
0002f0 42 b5 4f 3f 44 6f ab bd 9d a6 61 3e f6 53 91 bf
       0.8113595 -0.083708316 0.22036214 -1.1353748
000300 74 e9 e5 3c 88 e1 36 bc 15 9f dd 3d 4b b9 19 3d
       0.02806542 -0.011162169 0.10821358 0.037530225
000310 7e 37 00 bd e9 e1 c4 bd 67 bc b7 3d ed dd 8e 3d
       -0.03130292 -0.096134014 0.08971482 0.06975923
000320 33 75 29 3b a8 fc 61 bc c1 0e 11 3d 5a 31 bd bd
       0.002585721 -0.013793148 0.03541446 -0.09237929
000330 01 cf e0 bd 57 eb 3f bd b2 ef f5 3d 21 4f 99 bd
       -0.10976983 -0.046855297 0.12008609 -0.07485796
000340 ae 33 59 bd 64 55 2f 3d ef 24 b6 bd 2b d0 e8 bd
       -0.0530278 0.042806044 -0.08893763 -0.1136783
000350 a5 13 2a 3c 9d 19 69 3d 1f 16 98 3d 74 e0 6d 3d
       0.01038066 0.056909192 0.07426094 0.058075383
000360 6b 0b 88 bc d9 99 cb bc 9b 18 95 3c ac 63 eb 3d
       -0.016607007 -0.024853634 0.01820021 0.1149362
000370 01 de e2 bd 0d f7 0d 3d 22 86 c7 3d c7 78 80 be
       -0.110775 0.034659434 0.09742381 -0.25092146
000380 40 45 0a 3e 3d ab fe 3d 99 ab 25 bd 57 d9 08 3d
       0.1350298 0.12435005 -0.04044685 0.033410396
000390 08 2e 55 bc 43 6c d6 bc 39 f8 29 3e 19 86 94 bc
       -0.013011463 -0.02617467 0.16598596 -0.018130349
0003a0 e2 71 20 bd 63 cc 17 be b5 fa 3c 3c 6b dd f3 3d
       -0.039171107 -0.14824061 0.011534383 0.119074665
0003b0 1d b8 2e bd aa b2 86 3e 9c 30 d6 bd 78 7a 61 3d
       -0.042656053 0.26308185 -0.1045849 0.055048436
0003c0 43 ff 83 bd 98 6a 9d 3d 08 e4 a1 bc a9 88 17 be
       -0.06445172 0.07686347 -0.019762054 -0.14798225
0003d0 c4 17 d6 3d 93 78 6a 3d f2 f5 07 3e d5 ad 3f be
       0.10453752 0.057243895 0.13277414 -0.18718655
0003e0 da bc c5 3d e8 f5 cf 3d 27 37 ab 3d 4a 5f b9 3d
       0.09655161 0.10154325 0.08360129 0.09051378
0003f0 2b 30 e0 3d bb e6 f8 bc 61 80 82 bc e3 0b 22 3e
       0.10946687 -0.030383458 -0.015930356 0.15824847
